data.pth (torch, 3882 bytes, 6 tensors)

l1.weight f4 [8, 22]
000000 8a b5 cd 3e 5a 31 60 be 3a e2 de be 97 81 8a be
       0.40177566 -0.21893826 -0.43531972 -0.27051994
000010 2b 97 85 bc 4f 18 70 bd 55 6e c1 3d 21 26 ad be
       -0.016307434 -0.058616932 0.09444872 -0.33818153
000020 bd 22 c8 be b5 05 92 3e 92 2d ca be c1 e9 bf be
       -0.39089003 0.2851998 -0.39487892 -0.37483028
000030 0d f0 66 be 8e 38 8e bd 16 2f 85 be 47 1b 3a be
       -0.2255251 -0.06944381 -0.26012486 -0.18174468
000040 47 fb 70 3f 01 5a 34 3f 81 16 da bd 55 0b 9d bd
       0.9413342 0.70449835 -0.106488235 -0.07668177
000050 00 94 91 3e 82 75 b6 3c 2d a9 d0 bd d8 d9 93 3b
       0.28433228 0.022272829 -0.10188518 0.004512053
000060 7b 98 c7 bd 01 86 cd 3d 0a 1c 44 3f 29 3d ae 3e
       -0.0974588 0.10035325 0.76605284 0.34031036
000070 32 d4 2a 3f 69 b2 1d 3e 94 58 57 be 31 08 47 3f
       0.66730034 0.1540009 -0.21029884 0.77746874
000080 94 55 57 be 13 72 57 be aa be 8d 3d 64 0e 1c bd
       -0.21028739 -0.2103961 0.06921132 -0.03809966
000090 c7 64 38 bd 27 22 85 be e3 c7 de be f7 15 37 be
       -0.045017984 -0.2600262 -0.43511876 -0.17879473
0000a0 10 ee 34 be 78 1c 35 3f ef 4f 66 3e 46 e4 38 3f
       -0.17668939 0.70746565 0.2249143 0.7222332
0000b0 d3 0e 96 3e 60 67 9c 3e 70 c1 df 3e 25 cf f5 be
       0.29308185 0.3054762 0.4370227 -0.480096
0000c0 31 a1 36 bf 5a df 25 be b6 91 b6 be f1 34 01 bf
       -0.7133971 -0.16198483 -0.35658044 -0.5047141
0000d0 c0 fd 54 3f d1 0c 85 be ae c3 49 3f 39 e4 c0 3e
       0.8319969 -0.2598634 0.7881421 0.3767412
0000e0 17 12 8c 3e 2c 45 34 3f a7 6f 83 be e6 73 5c bd
       0.2735755 0.7041805 -0.2567112 -0.053821467
0000f0 6c d7 56 3e c2 c2 04 3f 1b db 2a 3f db 86 97 be
       0.20980614 0.51859677 0.6674058 -0.29595074
000100 d4 17 c7 3e 90 aa 0a bf 19 bc 8a be 8c 23 93 be
       0.38885367 -0.5416651 -0.27096632 -0.28738058
000110 bf 0f 39 bf f7 d6 20 3f fb 51 dc 3e bc 6b 86 3e
       -0.7228965 0.6282801 0.43031296 0.2625407
000120 a4 32 34 be 88 c5 c9 3e 49 d7 fb be 0c df 83 3e
       -0.17597443 0.39408517 -0.49187687 0.2575611
000130 76 a7 f3 be 7a da fb be 7f 29 a8 3a 68 f2 df bd
       -0.475887 -0.49190122 0.001282975 -0.10934907
000140 ac 67 30 3f 88 9d 5b 3f 71 e1 fb be 09 f8 f4 be
       0.6890819 0.8578725 -0.49195436 -0.47845486
000150 4c cf c2 bd 1b 5f 8f 3e b2 df bf 3e 7f 1a 14 be
       -0.09512195 0.28002247 0.37475353 -0.14463232
000160 07 3b 36 3e 65 8e 09 bd e1 e0 4c be ca 0c bf be
       0.17795955 -0.033583064 -0.2000766 -0.37314445
000170 52 82 37 3f bc 72 af 3e 01 c7 05 3f d7 11 bf be
       0.7168323 0.34267223 0.5225678 -0.37318298
000180 60 f8 aa be 57 47 2f 3f 3e 34 a2 be 57 05 bf be
       -0.3339262 0.6846823 -0.31680483 -0.3730876
000190 03 40 81 be 4d b3 82 be 76 37 5e be 61 47 d8 be
       -0.2524415 -0.2552742 -0.21700844 -0.42241958
0001a0 45 db 3b 3f 0d be cb 3e cf 8c ac bd 12 22 00 3f
       0.73381454 0.39793435 -0.084252946 0.5005199
0001b0 75 8d 95 3e 29 5f 66 3e 77 b0 18 3f fa 71 29 bd
       0.29209486 0.22497238 0.59644264 -0.041368462
0001c0 84 e6 ed bd 27 56 48 3f e8 64 01 bf 00 a3 97 3c
       -0.11616233 0.7825646 -0.50544596 0.018510342
0001d0 ba d7 02 be 9e 41 18 3f a3 85 d5 be 9f 20 bd 3e
       -0.12777606 0.59475124 -0.4170352 0.3693895
0001e0 5d 88 91 be df bc f8 be 4e 98 37 be 88 52 9c bd
       -0.2842435 -0.48581597 -0.17929193 -0.07632929
0001f0 61 69 8f 3e 80 85 12 3f a5 31 b8 3e 15 f1 06 3f
       0.28010085 0.57234955 0.35975376 0.5271161
000200 00 3f 9e be ab 7f 3e bc 97 85 2e be 62 07 6c be
       -0.3090744 -0.011627118 -0.17043148 -0.23049691
000210 b0 c3 2d bc 5a ac 0b 3e a8 8d c4 bc bc e6 96 3d
       -0.010605738 0.13639966 -0.023993328 0.07368228
000220 04 88 70 bd 81 0a fa bd 40 b9 c1 bc 10 17 13 3e
       -0.058723465 -0.12209035 -0.023647904 0.14364266
000230 db 95 05 be 40 c0 2b 3e c4 19 4a be 98 b4 e7 3c
       -0.13045447 0.16772556 -0.19736391 0.028284356
000240 04 33 d2 3d f0 76 b4 3d d8 90 52 bd c0 5a bf 3d
       0.10263637 0.08811748 -0.051407665 0.09343481
000250 0c d6 0b 3d ce 3b 4c be 8f fa dc bd 7e 1f 91 bd
       0.034139678 -0.19944689 -0.10789978 -0.07086085
000260 d5 db 3a be d8 8d 48 bd b9 55 02 bf b6 8b f6 3d
       -0.18247922 -0.048963398 -0.5091205 0.120383665
000270 52 2f 06 3f dc dc 5b be 12 e7 95 3e 71 34 da 3d
       0.52415955 -0.2147097 0.29277855 0.10654534
000280 58 b0 1d 3f d9 81 80 be bc e1 1a 3f 9b 7f a9 3e
       0.61597204 -0.25099066 0.60500693 0.33105168
000290 76 99 48 3f 0e 89 42 3f d1 7d d2 3e ed 5c be 3e
       0.7835916 0.7599038 0.41111615 0.37180272
0002a0 d1 eb 83 bd a5 36 97 be 58 55 ef be ef 86 5d be
       -0.06441463 -0.29533878 -0.467448 -0.21633504
0002b0 b5 d4 84 3e 14 aa ce 3e 68 69 43 3e 29 44 a6 3e
       0.25943533 0.40364134 0.19083178 0.32473877

l1.bias f4 [8]
000000 6e 2c ca 3e f2 50 57 3e c9 dd 41 3f 9a d4 fb 3e
       0.39487022 0.21026972 0.7572904 0.4918564
000010 a0 09 bf 3e e2 b0 f8 3e a7 0b 14 be 59 60 f0 3e
       0.3731203 0.4857245 -0.1445757 0.46948507

l2.weight f4 [8, 8]
000000 2c da bb 3e b4 cc f9 3e d8 44 c5 bc 87 5d e8 be
       0.3668989 0.4878899 -0.024080679 -0.45383856
000010 a7 74 21 3f 17 59 a6 3d ec 5b a9 3d 89 75 09 3f
       0.6306862 0.08122461 0.08269486 0.5369497
000020 bc b6 34 bf f0 0f f9 be 05 b4 be 3e 2f be 33 3f
       -0.7059133 -0.48644972 0.3724672 0.7021207
000030 8a 3c 10 bf e2 05 28 3f 3c 9a fc 3d a4 2a ef 3e
       -0.56342375 0.65633976 0.12334105 0.4671222
000040 f0 28 42 3d 27 43 54 3f d0 b6 24 bf 14 76 8e 3f
       0.047402322 0.82914966 -0.6434145 1.1129785
000050 6c ff d8 3e 98 2e 2d 3c bb a5 a0 3e 16 1f 0c 3f
       0.4238237 0.010570191 0.31376442 0.54734933
000060 43 84 36 3f 65 29 0f bd 65 0b 1a 3e fc e2 e9 3e
       0.71295565 -0.034951586 0.15043409 0.45680988
000070 4f 99 60 3e c1 75 65 3f 60 37 ed 3d ac 29 2d bf
       0.21933483 0.89632803 0.115828276 -0.6764171
000080 42 61 21 3f c7 cc 2a bf 80 04 43 3f d6 0b e3 be
       0.6303903 -0.66718715 0.7617874 -0.44344968
000090 34 10 08 3f a4 f4 88 3c 6e 33 52 3e 89 ba ac 3e
       0.53149724 0.016718216 0.20527431 0.33736065
0000a0 e5 50 16 bf 38 60 a4 be 07 db 8a 3f a1 11 0f bf
       -0.58717185 -0.3210466 1.0848092 -0.55886275
0000b0 1e 7a de be d4 d9 27 bf e0 d3 0b 3e 13 38 83 3f
       -0.43452543 -0.65566754 0.13655043 1.0251487
0000c0 69 06 12 3f ac 50 2f 3f 6c 80 30 be b3 ae 55 3e
       0.5704103 0.6848247 -0.17236489 0.20867424
0000d0 3e de 34 3f 63 7a b2 be 1a 78 0e 3e 7d 7e 05 3f
       0.70651615 -0.34859 0.13913003 0.5214613
0000e0 38 d3 f4 be ba 41 13 3e 71 d0 fa 3d fd 49 1b 3f
       -0.47817397 0.14380541 0.12246788 0.6065977
0000f0 82 6f 44 bf 51 85 31 3f ec 99 d0 bd 0b 19 23 3e
       -0.7673265 0.6934405 -0.10185608 0.15927522

l2.bias f4 [8]
000000 33 01 0a 3e 65 c0 3e 3f 3b 88 7c 3d 11 62 d4 3e
       0.1347702 0.7451232 0.061653357 0.4148107
000010 48 51 9d 3e 1e 89 13 3f a4 36 24 be 91 2b 51 3f
       0.30726075 0.576311 -0.16036469 0.817071

l3.weight f4 [4, 8]
000000 60 da 1b bf 8c 55 cf 3e 9c 42 94 3e 9f 34 ef 3e
       -0.6088009 0.40494955 0.2895707 0.46719834
000010 15 f4 a6 bf 4b 88 e8 be ca 5e 4e bf 30 0f 2f 3f
       -1.3043238 -0.45416483 -0.80613387 0.6838255
000020 6a 6e b4 be b8 55 a4 3e 64 73 8b bf b5 03 a5 bf
       -0.3524049 0.32096648 -1.089459 -1.2891756
000030 c7 c7 cd 3e bb 15 74 3f 55 51 36 bf fa f3 46 3e
       0.4019148 0.9534566 -0.7121785 0.19429007
000040 e0 4d a5 3e 66 36 64 bf b2 5a 4b 3f e1 50 09 bf
       0.32285976 -0.89145505 0.79435265 -0.53639036
000050 f3 95 7f bf 13 2e f9 be 82 0b 02 3f 8e cc 2d bf
       -0.9983818 -0.48667964 0.5079881 -0.6789025
000060 5e 1d 88 3e d9 cf 47 bf 4e 00 1e bf 5f d6 4b 3f
       0.26584905 -0.78051525 -0.61719215 0.7962398
000070 c6 6f 60 3f 05 24 3d bf e1 a7 0b bd 2b 9c 7d bf
       0.8767055 -0.73883086 -0.03409565 -0.9906642

l3.bias f4 [4]
000000 f2 b1 bb 3e b7 cc a8 3e 8e fe 8f bd cf 4a 1c be
       0.366592 0.32968685 -0.07030974 -0.15262912
